trained_model_data.pth (torch, 4951 bytes, 6 tensors)

l1.weight f4 [8, 52]
000000 f7 7b 1a be 7c e2 d6 3e f7 a0 cb be e5 e2 58 bc
       -0.15086351 0.4196967 -0.39771244 -0.01323769
000010 cd 55 31 3e ce 9f af 3c ab 12 94 be 23 76 cb bd
       0.17317887 0.021438506 -0.28920493 -0.09934642
000020 00 d7 ed bd 70 06 ce be 3f 81 6a 3d a1 b4 86 bd
       -0.116132736 -0.40239286 0.057252165 -0.06577421
000030 d8 00 d0 be 7d c3 a4 bd 97 ef cb 3e cc 67 4c 3f
       -0.40625644 -0.08045099 0.3983123 0.7984588
000040 7a bd cc 3e 2e 55 cb 3e e6 22 11 3d ca fb 30 bf
       0.3998831 0.39713424 0.035433672 -0.691342
000050 8d 62 99 bd 32 75 22 3e 79 81 4b bc 3b f8 e0 3e
       -0.074895 0.15865019 -0.012421005 0.43939385
000060 c7 ae a3 be 2a d1 a3 bd 93 4c f9 bc 64 dc 95 be
       -0.31969282 -0.07998879 -0.030432021 -0.29269707
000070 ae 77 25 be bc a0 2c be f9 92 07 be df f5 17 bf
       -0.16158935 -0.1685819 -0.1323966 -0.59359545
000080 b5 f9 17 bf fd 4c fc bd 69 b4 1b be 3d 1d a3 3d
       -0.593654 -0.12319372 -0.1520554 0.07964561
000090 f9 c8 ad bd 04 ec 47 3f 42 ba db 3e b6 1f dc bc
       -0.08485598 0.78094506 0.4291554 -0.02687059
0000a0 1d 89 3f 3f 3e d1 81 bd 3e 25 cf bd e7 e5 f4 bc
       0.74818593 -0.06338738 -0.10114525 -0.029894782
0000b0 ff e7 ec 3e c0 f0 89 3c ee 3e a3 3e 77 25 17 3f
       0.4627075 0.016838431 0.3188395 0.5904154
0000c0 02 84 cf 3e 3b 05 88 bd 6f 34 46 3e 75 76 b8 3e
       0.405304 -0.06641623 0.1935594 0.36027876
0000d0 7a cd 8a 3e ef 83 01 be ae 0e d9 be 94 21 02 3f
       0.2710989 -0.12647985 -0.42394012 0.50832486
0000e0 16 67 87 bc d2 b4 c9 be 6c 1a 30 bf 12 94 75 3e
       -0.016528647 -0.39395767 -0.68790317 0.23982266
0000f0 80 25 b4 be 7f a9 c7 be 04 4d 55 3e 47 1a 68 3d
       -0.3518486 -0.38996503 0.2083016 0.056665685
000100 36 88 f9 3e 94 6b 01 3e 0d 71 72 3e 8d ba 0a 3f
       0.48736733 0.12638694 0.23675938 0.54190904
000110 a9 00 8f 3e 2f 7d 7f 3e 0d 78 1d 3e 1a f3 33 bf
       0.2793019 0.24950098 0.15377827 -0.7029282
000120 66 5c fb 3d 67 b7 9e be fd f1 e3 3e 38 95 d0 3e
       0.12273483 -0.309993 0.4452056 0.40738845
000130 a4 88 ee 3e 99 99 e8 3e da 8f 07 bf e2 0c ac 3e
       0.46588624 0.45429686 -0.52953875 0.3360358
000140 70 a3 91 3e 31 4d 91 3e 0d 7a ee 3e 14 9c 8d 3f
       0.28445005 0.28379205 0.46577492 1.1063256
000150 5b be 5d 3f 48 95 52 3e a5 41 d2 3d c3 fc 61 3e
       0.86618584 0.20564759 0.10266427 0.22069077
000160 45 98 3e 3e 48 45 7f bd a7 b7 c2 be f6 de f8 3e
       0.18612774 -0.06232193 -0.3803074 0.48607606
000170 6a 04 52 3f 23 22 f4 3d 4c 25 0c 3e da fc 17 3e
       0.82037985 0.119205736 0.13686103 0.14842549
000180 be 90 f0 3e aa 3c ae 3e bf f8 02 be 5a e8 ee 3e
       0.4698543 0.34030658 -0.12790202 0.46661645
000190 b4 8a c2 3e ba df 08 3e 50 36 aa bd 06 ad e0 3d
       0.37996447 0.13366595 -0.083111405 0.109705016
0001a0 4e 3c f3 3e ce 98 1a bd de 56 23 3e ea 70 98 3e
       0.47506946 -0.037743382 0.15951106 0.29773647
0001b0 38 7e 8e bd c5 74 34 3e 3d bc 7f 3f 8e 90 47 3e
       -0.06957668 0.17622669 0.99896604 0.19488737
0001c0 62 aa 0b 3f 08 a4 1f 3e 5c 39 f7 bd 3d 1a 5a 3e
       0.5455686 0.15589917 -0.12071487 0.21299072
0001d0 54 f5 19 be d8 c9 a0 3e 7f 1b 05 3f e4 4d 51 bf
       -0.15034992 0.31403995 0.5199508 -0.81759477
0001e0 e8 c4 7b 3e ac e2 15 3f 71 3d 69 3e 93 46 96 bd
       0.24586833 0.58549 0.22777344 -0.0733768
0001f0 ad 35 b9 3e 33 66 b3 3e d6 1a 05 bf cc 7e 82 3e
       0.36173764 0.3503891 -0.51994073 0.25487363
000200 fa 98 0c 3f e1 7b 6c 3e b1 d4 29 3f 6e ca 00 3f
       0.54920924 0.23094131 0.66340166 0.50308883
000210 5e ea b0 3e 40 ea 0d 3f 5a 91 18 3f 08 08 44 bf
       0.34553808 0.5543556 0.5959679 -0.76574755
000220 16 90 58 bf 2a 28 f8 3e c6 cc 06 3f c0 b6 4c 3e
       -0.8459486 0.48468143 0.5265621 0.19991589
000230 8d 19 e0 3e 29 94 58 bf 99 7f 02 be 48 a7 f2 be
       0.43769494 -0.84601074 -0.12743987 -0.4739325
000240 a1 60 e3 3e 6a 92 0f 3e 9b 66 b7 3e 68 ec 80 3e
       0.4440966 0.14020696 0.3582047 0.25180364
000250 cc 0e aa 3e b2 e3 06 be 50 c6 ea bc c9 82 3e 3e
       0.33214414 -0.13172796 -0.028659016 0.18604578
000260 92 be e3 3d 86 c2 3f 3e e6 74 1b 3f 73 5a 7b bd
       0.11120333 0.18726549 0.6072525 -0.061365556
000270 f6 18 83 be 98 d6 8b 3e ff ff 06 bf a3 ba d9 bd
       -0.2560498 0.2731216 -0.5273437 -0.10631301
000280 89 88 ab 3e 57 07 1a bd f8 2d 1a bf 60 c4 ce bd
       0.33502606 -0.037604656 -0.6022639 -0.10096049
000290 7a 08 ab be ca 44 b6 be 72 ce 5f 3e c8 23 f4 3c
       -0.33404905 -0.35599357 0.21856096 0.029802218
0002a0 15 60 8f be 20 2d 88 bd f1 54 ca 3e b2 dd 47 3f
       -0.28002992 -0.06649232 0.3951793 0.78072655
0002b0 dd e5 f5 3e 00 dc cd 3e 82 07 86 bd 73 5a 30 bf
       0.48026934 0.4020691 -0.06544401 -0.68888015
0002c0 14 60 0c 3d e5 2c 6b b9 c5 f3 e6 bd a7 f4 92 3e
       0.034271315 -0.00022428071 -0.11276964 0.2870228
0002d0 c5 d3 8d be 12 29 30 3c 37 6b 9e be 00 5d 43 be
       -0.2770063 0.010751979 -0.30941173 -0.19078445
0002e0 ac 58 07 bd 72 45 8d be fc 42 4c be 58 50 f2 be
       -0.03304355 -0.27592045 -0.19947428 -0.47326922
0002f0 24 bf 37 be 5d 5f 08 be b5 7c ba be 7c 3a df 3c
       -0.17944008 -0.13317628 -0.3642327 0.027249567
000300 40 5f 55 bd f3 b5 5f 3f ca 7a 97 3e de 9e c7 bd
       -0.05209279 0.8738701 0.29585868 -0.097470984
000310 0c 96 01 3f 58 57 16 be 86 9d d5 bd 0a a8 81 bd
       0.5061958 -0.14681756 -0.10430436 -0.06330879
000320 f1 05 d6 3e c5 f1 0a be 3c 73 8f 3e 29 7f dc 3e
       0.41801408 -0.1356879 0.28017604 0.43065766
000330 96 5a 86 3e 9e df 55 bd 04 8a f7 3b 28 6a a7 3e
       0.26240987 -0.05221521 0.0075542945 0.32698178
000340 79 b3 70 bd 3e 6a 9e 3e bf dc 28 3f b0 75 07 bf
       -0.05876491 0.3094043 0.6596183 -0.5291395
000350 75 6c d0 3e 3c 35 3b 3e 82 7a 00 3f 4b 80 14 be
       0.40707746 0.18282026 0.5018693 -0.14502065
000360 f0 9c 50 3e 24 a4 b7 3e 50 f6 40 3e 08 bc 8b 3d
       0.20372367 0.35867417 0.18843961 0.068229735
000370 ae 36 86 3e 74 83 ac bd 04 5e 97 be 35 b7 e8 3e
       0.26213592 -0.0842351 -0.29563916 0.45452276
000380 fe e2 82 3f fa de c8 be 1c 9f 55 3d 75 e9 80 3f
       1.0225523 -0.39232618 0.05215369 1.0071245
000390 10 5c 08 3d 24 5e 5e 3e 19 0a de 3e a4 b2 a3 3d
       0.033290923 0.217156 0.4336708 0.07993057
0003a0 fb 73 09 bf f5 0e b5 be 5b b5 0a 3d a4 6b 24 be
       -0.536926 -0.35362974 0.03386436 -0.16056687
0003b0 e0 7b 80 bc ad 61 77 be f6 40 87 be 68 93 25 3c
       -0.015684068 -0.24158354 -0.2641675 0.010105945
0003c0 88 8f 80 3f cc 8f 97 bd 59 c6 b8 3e 97 47 db bb
       1.0043802 -0.07400474 0.36088827 -0.006691884
0003d0 af ea 67 bd 5c 81 0e 3f 0c c0 1f 3f 6e 79 10 3f
       -0.056620296 0.55666137 0.62402415 0.56435287
0003e0 1a 12 24 bf 2c 42 bd bd 50 80 db bd 19 ae 23 bd
       -0.6409012 -0.09241137 -0.10717833 -0.039960954
0003f0 3b 75 83 be a2 2c 18 3d ba b9 7b 3e eb 68 20 be
       -0.25675377 0.03715194 0.24582568 -0.15665023

l1.bias f4 [8]
000000 14 f4 17 3f be 84 7b 3f 4e 8c 58 3f 08 86 2a 3f
       0.5935681 0.98249424 0.8458909 0.66610765
000010 df 80 2a 3f 6a ec e3 3e 93 88 1a 3f db b2 1c 3f
       0.6660289 0.44516307 0.60364646 0.6121041

l2.weight f4 [8, 8]
000000 a6 2c ac 3f ec 39 07 bf ca 55 1f 3f 28 22 84 3f
       1.3451126 -0.52822757 0.6224028 1.0322924
000010 c1 15 42 3f 67 d5 2e 3f c1 88 4f 3f 8e 5b 96 be
       0.75814444 0.68294376 0.81068045 -0.29366726
000020 ae d3 9a 3f fb a1 40 3f 66 f2 09 3d 76 5a 73 3f
       1.209585 0.7524716 0.033678435 0.9505991
000030 fb 06 3b bf cb 7a 2b 3f dd f2 ed be ce fa 80 3f
       -0.73057526 0.6698424 -0.46474352 1.007654
000040 be 31 37 3e 91 31 9d 3f 68 b8 97 3f bd 3b 8c 3d
       0.17890069 1.2280751 1.1853151 0.06847332
000050 30 7e fd be f0 ae 5a bf 80 e6 09 be 3a 2e 8e 3f
       -0.49510336 -0.85423183 -0.13466835 1.1107857
000060 e4 7a b8 3e 97 67 8f bf 72 77 84 3f 99 93 9b be
       0.36031258 -1.1203488 1.0348952 -0.30386046
000070 da ba 50 3f 5c 3e e9 3e 81 03 8f 3e fe 71 16 3f
       0.8153511 0.4555539 0.2793236 0.5876769
000080 0f f0 bc bf 00 5a 84 3f 97 2b d6 be 63 d9 da bd
       -1.476076 1.0339966 -0.4183013 -0.106859945
000090 48 ba 9e 3f 37 7b 19 3f 01 e4 98 3f 3c d0 82 bf
       1.2400599 0.59953636 1.1944581 -1.0219798
0000a0 43 f9 8c 3f e3 bc b1 3f 20 64 28 bf 88 33 90 3f
       1.1013569 1.3885769 -0.6577778 1.1265726
0000b0 13 25 a6 3e 07 49 a1 bc 7c d3 8f 3d 36 1f d5 be
       0.3245016 -0.019688142 0.07022759 -0.41625375
0000c0 1d 8b 0e bf 70 3a 22 3f 10 e3 4c 3f 87 b2 94 bf
       -0.5568102 0.6337042 0.8003397 -1.1616982
0000d0 44 4d 72 be 78 44 3b bf d2 c8 2e be 07 d7 44 3f
       -0.23662287 -0.7315135 -0.17068794 0.76890606
0000e0 d6 ff 21 3f 84 04 82 be 89 1a 0f bf 48 07 ef 3e
       0.63281 -0.2539407 -0.55899864 0.46685243
0000f0 3a f2 58 3f b0 13 a1 3f 23 a4 94 3f d1 42 ad bf
       0.8474461 1.2584133 1.161259 -1.3536016

l2.bias f4 [8]
000000 51 52 83 3e 7c 96 72 be 81 29 2f 3f 83 32 03 3e
       0.2564874 -0.23690218 0.68422705 0.12812237
000010 ec 44 15 3f 61 ca 57 3e 59 1a 4e bc b4 f7 d9 3d
       0.5830829 0.21073295 -0.012579524 0.10642949

l3.weight f4 [7, 8]
000000 15 6d f9 3e 15 38 aa bf 44 5c eb 3e 65 72 22 3f
       0.48716035 -1.3298365 0.4596883 0.634558
000010 e6 7b 18 bf 56 f0 9d bf bd 91 40 3e 39 6d 54 bf
       -0.59564054 -1.233897 0.18805595 -0.8297916
000020 8d de f3 3d 82 27 6d 3f 75 3a e8 3e 3e d9 1e bf
       0.119076826 0.9263841 0.453571 -0.62050235
000030 70 66 af bf e1 af c5 3e 29 83 8e bf ae 2b f6 be
       -1.3703136 0.38610747 -1.1133777 -0.480802
000040 ca e3 69 3d e2 7c 9e bf 0e a0 77 bf e5 2f 06 3f
       0.057102002 -1.2381861 -0.967286 0.5241683
000050 1e 73 b2 3e f5 a7 91 bf cb ef 7a bf 32 d7 26 3f
       0.34853452 -1.1379381 -0.98022145 0.6517211
000060 55 fc 94 bf e6 60 42 be de ef dc 3e ce 25 b2 bf
       -1.1639506 -0.18982276 0.43151754 -1.3917787
000070 f5 51 ce 3e 4f 6c 45 3f ae 71 d0 bd 90 6e 96 bf
       0.40296903 0.7711839 -0.10177933 -1.1752491
000080 fd 72 0a be 12 34 ea bf cc 6c 87 be 95 da d5 bf
       -0.13520427 -1.8297141 -0.26450193 -1.6707331
000090 f8 2a 45 3f 28 bd a8 3e b7 31 b1 bf 93 34 df 3e
       0.7701869 0.32956815 -1.3843297 0.43594798
0000a0 e9 9a 93 bf 68 36 36 3f 80 73 f5 3e fc 12 1a bf
       -1.153165 0.7117677 0.47939682 -0.6018522
0000b0 d0 5a 67 bf 40 a5 8e bf 94 50 73 3f 32 10 ed be
       -0.90372944 -1.114418 0.9504483 -0.4630142
0000c0 d7 ce c5 3e f9 da 84 3e 34 c8 95 bf ce 29 43 bf
       0.3863437 0.25948313 -1.1701722 -0.76235664
0000d0 48 06 09 bf 89 b4 1e 3f fb 28 60 bf 4f ff 09 3f
       -0.5352521 0.61994225 -0.8756253 0.53905195

l3.bias f4 [7]
000000 3d d3 46 be 98 71 b2 be f8 74 58 be 1d e8 5e 3e
       -0.19416519 -0.3485229 -0.2113837 0.21768232
000010 8f 8c e8 be 28 5c 26 3d 1f d3 e4 be
       -0.45419738 0.04061523 -0.44692323
